…
    "            T.ResizeShortestEdge(cfg.INPUT.MIN_SIZE_TRAIN, cfg.INPUT.MAX_SIZE_TRAIN, cfg.INPUT.MIN_SIZE_TRAIN_SAMPLING),\n",
    "            T.RandomCrop(cfg.INPUT.CROP.TYPE, cfg.INPUT.CROP.SIZE,),\n",
    "           ]))\n",
    "        \n",
    "        return dataloader"
   ]
  },
  {
   "cell_type": "code",
   "execution_count": 14,
   "metadata": {
    "scrolled": true
   },
   "outputs": [
    {
     "name": "stdout",
     "output_type": "stream",
     "text": [
      "\u001b[32m[08/12 08:33:07 d2.engine.defaults]: \u001b[0mModel:\n",
      "SemanticSegmentor(\n",
      "  (backbone): FPN(\n",
      "    (fpn_lateral2): Conv2d(256, 256, kernel_size=(1, 1), stride=(1, 1))\n",
      "    (fpn_output2): Conv2d(256, 256, kernel_size=(3, 3), stride=(1, 1), padding=(1, 1))\n",
      "    (fpn_lateral3): Conv2d(512, 256, kernel_size=(1, 1), stride=(1, 1))\n",
      "    (fpn_output3): Conv2d(256, 256, kernel_size=(3, 3), stride=(1, 1), padding=(1, 1))\n",
      "    (fpn_lateral4): Conv2d(1024, 256, kernel_size=(1, 1), stride=(1, 1))\n",
      "    (fpn_output4): Conv2d(256, 256, kernel_size=(3, 3), stride=(1, 1), padding=(1, 1))\n",
      "    (fpn_lateral5): Conv2d(2048, 256, kernel_size=(1, 1), stride=(1, 1))\n",
      "    (fpn_output5): Conv2d(256, 256, kernel_size=(3, 3), stride=(1, 1), padding=(1, 1))\n",
      "    (top_block): LastLevelMaxPool()\n",
      "    (bottom_up): ResNet(\n",
      "      (stem): BasicStem(\n",
      "        (conv1): Conv2d(\n",
      "          3, 64, kernel_size=(7, 7), stride=(2, 2), padding=(3, 3), bias=False\n",
      "          (norm): FrozenBatchNorm2d(num_features=64, eps=1e-05)\n",
      "        )\n",
      "      )\n",
      "      (res2): Sequential(\n",
      "        (0): BottleneckBlock(\n",
      "          (shortcut): Conv2d(\n",
      "            64, 256, kernel_size=(1, 1), stride=(1, 1), bias=False\n",
      "            (norm): FrozenBatchNorm2d(num_features=256, eps=1e-05)\n",
      "          )\n",
      "          (conv1): Conv2d(\n",
      "            64, 64, kernel_size=(1, 1), stride=(1, 1), bias=False\n",
      "            (norm): FrozenBatchNorm2d(num_features=64, eps=1e-05)\n",
      "          )\n",
      "          (conv2): Conv2d(\n",
      "            64, 64, kernel_size=(3, 3), stride=(1, 1), padding=(1, 1), bias=False\n",
      "            (norm): FrozenBatchNorm2d(num_features=64, eps=1e-05)\n",
      "          )\n",
      "          (conv3): Conv2d(\n",
      "            64, 256, kernel_size=(1, 1), stride=(1, 1), bias=False\n",
      "            (norm): FrozenBatchNorm2d(num_features=256, eps=1e-05)\n",
      "          )\n",
      "        )\n",
      "        (1): BottleneckBlock(\n",
      "          (conv1): Conv2d(\n",
      "            256, 64, kernel_size=(1, 1), stride=(1, 1), bias=False\n",
      "            (norm): FrozenBatchNorm2d(num_features=64, eps=1e-05)\n",
      "          )\n",
      "          (conv2): Conv2d(\n",
      "            64, 64, kernel_size=(3, 3), stride=(1, 1), padding=(1, 1), bias=False\n",
      "            (norm): FrozenBatchNorm2d(num_features=64, eps=1e-05)\n",
      "          )\n",
      "          (conv3): Conv2d(\n",
      "            64, 256, kernel_size=(1, 1), stride=(1, 1), bias=False\n",
      "            (norm): FrozenBatchNorm2d(num_features=256, eps=1e-05)\n",
      "          )\n",
      "        )\n",
      "        (2): BottleneckBlock(\n",
      "          (conv1): Conv2d(\n",
      "            256, 64, kernel_size=(1, 1), stride=(1, 1), bias=False\n",
      "            (norm): FrozenBatchNorm2d(num_features=64, eps=1e-05)\n",
      "          )\n",
      "          (conv2): Conv2d(\n",
      "            64, 64, kernel_size=(3, 3), stride=(1, 1), padding=(1, 1), bias=False\n",
      "            (norm): FrozenBatchNorm2d(num_features=64, eps=1e-05)\n",
      "          )\n",
      "          (conv3): Conv2d(\n",
      "            64, 256, kernel_size=(1, 1), stride=(1, 1), bias=False\n",
      "            (norm): FrozenBatchNorm2d(num_features=256, eps=1e-05)\n",
      "          )\n",
      "        )\n",
      "      )\n",
      "      (res3): Sequential(\n",
      "        (0): BottleneckBlock(\n",
      "          (shortcut): Conv2d(\n",
      "            256, 512, kernel_size=(1, 1), stride=(2, 2), bias=False\n",
      "            (norm): FrozenBatchNorm2d(num_features=512, eps=1e-05)\n",
      "          )\n",
      "          (conv1): Conv2d(\n",
      "            256, 128, kernel_size=(1, 1), stride=(2, 2), bias=False\n",
      "            (norm): FrozenBatchNorm2d(num_features=128, eps=1e-05)\n",
      "          )\n",
      "          (conv2): Conv2d(\n",
      "            128, 128, kernel_size=(3, 3), stride=(1, 1), padding=(1, 1), bias=False\n",
      "            (norm): FrozenBatchNorm2d(num_features=128, eps=1e-05)\n",
      "          )\n",
      "          (conv3): Conv2d(\n",
      "            128, 512, kernel_size=(1, 1), stride=(1, 1), bias=False\n",
      "            (norm): FrozenBatchNorm2d(num_features=512, eps=1e-05)\n",
      "          )\n",
      "        )\n",
      "        (1): BottleneckBlock(\n",
      "          (conv1): Conv2d(\n",
      "            512, 128, kernel_size=(1, 1), stride=(1, 1), bias=False\n",
      "            (norm): FrozenBatchNorm2d(num_features=128, eps=1e-05)\n",
      "          )\n",
      "          (conv2): Conv2d(\n",
      "            128, 128, kernel_size=(3, 3), stride=(1, 1), padding=(1, 1), bias=False\n",
      "            (norm): FrozenBatchNorm2d(num_features=128, eps=1e-05)\n",
      "          )\n",
      "          (conv3): Conv2d(\n",
      "            128, 512, kernel_size=(1, 1), stride=(1, 1), bias=False\n",
      "            (norm): FrozenBatchNorm2d(num_features=512, eps=1e-05)\n",
      "          )\n",
      "        )\n",
      "        (2): BottleneckBlock(\n",
      "          (conv1): Conv2d(\n",
      "            512, 128, kernel_size=(1, 1), stride=(1, 1), bias=False\n",
      "            (norm): FrozenBatchNorm2d(num_features=128, eps=1e-05)\n",
      "          )\n",
      "          (conv2): Conv2d(\n",
      "            128, 128, kernel_size=(3, 3), stride=(1, 1), padding=(1, 1), bias=False\n",
      "            (norm): FrozenBatchNorm2d(num_features=128, eps=1e-05)\n",
      "          )\n",
      "          (conv3): Conv2d(\n",
      "            128, 512, kernel_size=(1, 1), stride=(1, 1), bias=False\n",
      "            (norm): FrozenBatchNorm2d(num_features=512, eps=1e-05)\n",
      "          )\n",
      "        )\n",
      "        (3): BottleneckBlock(\n",
      "          (conv1): Conv2d(\n",
      "            512, 128, kernel_size=(1, 1), stride=(1, 1), bias=False\n",
      "            (norm): FrozenBatchNorm2d(num_features=128, eps=1e-05)\n",
      "          )\n",
      "          (conv2): Conv2d(\n",
      "            128, 128, kernel_size=(3, 3), stride=(1, 1), padding=(1, 1), bias=False\n",
      "            (norm): FrozenBatchNorm2d(num_features=128, eps=1e-05)\n",
      "          )\n",
      "          (conv3): Conv2d(\n",
      "            128, 512, kernel_size=(1, 1), stride=(1, 1), bias=False\n",
      "            (norm): FrozenBatchNorm2d(num_features=512, eps=1e-05)\n",
      "          )\n",
      "        )\n",
      "      )\n",
      "      (res4): Sequential(\n",
      "        (0): BottleneckBlock(\n",
      "          (shortcut): Conv2d(\n",
      "            512, 1024, kernel_size=(1, 1), stride=(2, 2), bias=False\n",
      "            (norm): FrozenBatchNorm2d(num_features=1024, eps=1e-05)\n",
      "          )\n",
      "          (conv1): Conv2d(\n",
      "            512, 256, kernel_size=(1, 1), stride=(2, 2), bias=False\n",
      "            (norm): FrozenBatchNorm2d(num_features=256, eps=1e-05)\n",
      "          )\n",
      "          (conv2): Conv2d(\n",
      "            256, 256, kernel_size=(3, 3), stride=(1, 1), padding=(1, 1), bias=False\n",
      "            (norm): FrozenBatchNorm2d(num_features=256, eps=1e-05)\n",
      "          )\n",
      "          (conv3): Conv2d(\n",
      "            256, 1024, kernel_size=(1, 1), stride=(1, 1), bias=False\n",
      "            (norm): FrozenBatchNorm2d(num_features=1024, eps=1e-05)\n",
      "          )\n",
      "        )\n",
      "        (1): BottleneckBlock(\n",
      "          (conv1): Conv2d(\n",
      "            1024, 256, kernel_size=(1, 1), stride=(1, 1), bias=False\n",
      "            (norm): FrozenBatchNorm2d(num_features=256, eps=1e-05)\n",
      "          )\n",
      "          (conv2): Conv2d(\n",
      "            256, 256, kernel_size=(3, 3), stride=(1, 1), padding=(1, 1), bias=False\n",
      "            (norm): FrozenBatchNorm2d(num_features=256, eps=1e-05)\n",
      "          )\n",
      "          (conv3): Conv2d(\n",
      "            256, 1024, kernel_size=(1, 1), stride=(1, 1), bias=False\n",
      "            (norm): FrozenBatchNorm2d(num_features=1024, eps=1e-05)\n",
      "          )\n",
      "        )\n",
      "        (2): BottleneckBlock(\n",
      "          (conv1): Conv2d(\n",
      "            1024, 256, kernel_size=(1, 1), stride=(1, 1), bias=False\n",
      "            (norm): FrozenBatchNorm2d(num_features=256, eps=1e-05)\n",
      "          )\n",
      "          (conv2): Conv2d(\n",
      "            256, 256, kernel_size=(3, 3), stride=(1, 1), padding=(1, 1), bias=False\n",
      "            (norm): FrozenBatchNorm2d(num_features=256, eps=1e-05)\n",
      "          )\n",
      "          (conv3): Conv2d(\n",
      "            256, 1024, kernel_size=(1, 1), stride=(1, 1), bias=False\n",
      "            (norm): FrozenBatchNorm2d(num_features=1024, eps=1e-05)\n",
      "          )\n",
      "        )\n",
      "        (3): BottleneckBlock(\n",
      "          (conv1): Conv2d(\n",
      "            1024, 256, kernel_size=(1, 1), stride=(1, 1), bias=False\n",
      "            (norm): FrozenBatchNorm2d(num_features=256, eps=1e-05)\n",
      "          )\n",
      "          (conv2): Conv2d(\n",
      "            256, 256, kernel_size=(3, 3), stride=(1, 1), padding=(1, 1), bias=False\n",
      "            (norm): FrozenBatchNorm2d(num_features=256, eps=1e-05)\n",
      "          )\n",
      "          (conv3): Conv2d(\n",
      "            256, 1024, kernel_size=(1, 1), stride=(1, 1), bias=False\n",
      "            (norm): FrozenBatchNorm2d(num_features=1024, eps=1e-05)\n",
      "          )\n",
      "        )\n",
      "        (4): BottleneckBlock(\n",
      "          (conv1): Conv2d(\n",
      "            1024, 256, kernel_size=(1, 1), stride=(1, 1), bias=False\n",
      "            (norm): FrozenBatchNorm2d(num_features=256, eps=1e-05)\n",
      "          )\n",
      "          (conv2): Conv2d(\n",
      "            256, 256, kernel_size=(3, 3), stride=(1, 1), padding=(1, 1), bias=False\n",
      "            (norm): FrozenBatchNorm2d(num_features=256, eps=1e-05)\n",
      "          )\n",
      "          (conv3): Conv2d(\n",
      "            256, 1024, kernel_size=(1, 1), stride=(1, 1), bias=False\n",
      "            (norm): FrozenBatchNorm2d(num_features=1024, eps=1e-05)\n",
      "          )\n",
      "        )\n",
      "        (5): BottleneckBlock(\n",
      "          (conv1): Conv2d(\n",
      "            1024, 256, kernel_size=(1, 1), stride=(1, 1), bias=False\n",
      "            (norm): FrozenBatchNorm2d(num_features=256, eps=1e-05)\n",
      "          )\n",
      "          (conv2): Conv2d(\n",
      "            256, 256, kernel_size=(3, 3), stride=(1, 1), padding=(1, 1), bias=False\n",
      "            (norm): FrozenBatchNorm2d(num_features=256, eps=1e-05)\n",
      "          )\n",
      "          (conv3): Conv2d(\n",
      "            256, 1024, kernel_size=(1, 1), stride=(1, 1), bias=False\n",
      "            (norm): FrozenBatchNorm2d(num_features=1024, eps=1e-05)\n",
      "          )\n",
      "        )\n",
      "      )\n",
      "      (res5): Sequential(\n",
      "        (0): BottleneckBlock(\n",
      "          (shortcut): Conv2d(\n",
      "            1024, 2048, kernel_size=(1, 1), stride=(2, 2), bias=False\n",
      "            (norm): FrozenBatchNorm2d(num_features=2048, eps=1e-05)\n",
      "          )\n",
      "          (conv1): Conv2d(\n",
      "            1024, 512, kernel_size=(1, 1), stride=(2, 2), bias=False\n",
      "            (norm): FrozenBatchNorm2d(num_features=512, eps=1e-05)\n",
      "          )\n",
      "          (conv2): Conv2d(\n",
      "            512, 512, kernel_size=(3, 3), stride=(1, 1), padding=(1, 1), bias=False\n",
      "            (norm): FrozenBatchNorm2d(num_features=512, eps=1e-05)\n",
      "          )\n",
      "          (conv3): Conv2d(\n",
      "            512, 2048, kernel_size=(1, 1), stride=(1, 1), bias=False\n",
      "            (norm): FrozenBatchNorm2d(num_features=2048, eps=1e-05)\n",
      "          )\n",
      "        )\n",
      "        (1): BottleneckBlock(\n",
      "          (conv1): Conv2d(\n",
      "            2048, 512, kernel_size=(1, 1), stride=(1, 1), bias=False\n",
      "            (norm): FrozenBatchNorm2d(num_features=512, eps=1e-05)\n",
      "          )\n",
      "          (conv2): Conv2d(\n",
      "            512, 512, kernel_size=(3, 3), stride=(1, 1), padding=(1, 1), bias=False\n",
      "            (norm): FrozenBatchNorm2d(num_features=512, eps=1e-05)\n",
      "          )\n",
      "          (conv3): Conv2d(\n",
      "            512, 2048, kernel_size=(1, 1), stride=(1, 1), bias=False\n",
      "            (norm): FrozenBatchNorm2d(num_features=2048, eps=1e-05)\n",
      "          )\n",
      "        )\n",
      "        (2): BottleneckBlock(\n",
      "          (conv1): Conv2d(\n",
      "            2048, 512, kernel_size=(1, 1), stride=(1, 1), bias=False\n",
      "            (norm): FrozenBatchNorm2d(num_features=512, eps=1e-05)\n",
      "          )\n",
      "          (conv2): Conv2d(\n",
      "            512, 512, kernel_size=(3, 3), stride=(1, 1), padding=(1, 1), bias=False\n",
      "            (norm): FrozenBatchNorm2d(num_features=512, eps=1e-05)\n",
      "          )\n",
      "          (conv3): Conv2d(\n",
      "            512, 2048, kernel_size=(1, 1), stride=(1, 1), bias=False\n",
      "            (norm): FrozenBatchNorm2d(num_features=2048, eps=1e-05)\n",
      "          )\n",
      "        )\n",
      "      )\n",
      "    )\n",
      "  )\n",
      "  (sem_seg_head): SemSegFPNHead(\n",
      "    (p2): Sequential(\n",
      "      (0): Conv2d(\n",
      "        256, 128, kernel_size=(3, 3), stride=(1, 1), padding=(1, 1), bias=False\n",
      "        (norm): GroupNorm(32, 128, eps=1e-05, affine=True)\n",
      "      )\n",
      "    )\n",
      "    (p3): Sequential(\n",
      "      (0): Conv2d(\n",
      "        256, 128, kernel_size=(3, 3), stride=(1, 1), padding=(1, 1), bias=False\n",
      "        (norm): GroupNorm(32, 128, eps=1e-05, affine=True)\n",
      "      )\n",
      "      (1): Upsample(scale_factor=2.0, mode=bilinear)\n",
      "    )\n",
      "    (p4): Sequential(\n",
      "      (0): Conv2d(\n",
      "        256, 128, kernel_size=(3, 3), stride=(1, 1), padding=(1, 1), bias=False\n",
      "        (norm): GroupNorm(32, 128, eps=1e-05, affine=True)\n",
      "      )\n",
      "      (1): Upsample(scale_factor=2.0, mode=bilinear)\n",
      "      (2): Conv2d(\n",
      "        128, 128, kernel_size=(3, 3), stride=(1, 1), padding=(1, 1), bias=False\n",
      "        (norm): GroupNorm(32, 128, eps=1e-05, affine=True)\n",
      "      )\n",
      "      (3): Upsample(scale_factor=2.0, mode=bilinear)\n",
      "    )\n",
      "    (p5): Sequential(\n",
      "      (0): Conv2d(\n",
      "        256, 128, kernel_size=(3, 3), stride=(1, 1), padding=(1, 1), bias=False\n",
      "        (norm): GroupNorm(32, 128, eps=1e-05, affine=True)\n",
      "      )\n",
      "      (1): Upsample(scale_factor=2.0, mode=bilinear)\n",
      "      (2): Conv2d(\n",
      "        128, 128, kernel_size=(3, 3), stride=(1, 1), padding=(1, 1), bias=False\n",
      "        (norm): GroupNorm(32, 128, eps=1e-05, affine=True)\n",
      "      )\n",
      "      (3): Upsample(scale_factor=2.0, mode=bilinear)\n",
      "      (4): Conv2d(\n",
      "        128, 128, kernel_size=(3, 3), stride=(1, 1), padding=(1, 1), bias=False\n",
      "        (norm): GroupNorm(32, 128, eps=1e-05, affine=True)\n",
      "      )\n",
      "      (5): Upsample(scale_factor=2.0, mode=bilinear)\n",
      "    )\n",
      "    (predictor): Conv2d(128, 2, kernel_size=(1, 1), stride=(1, 1))\n",
      "  )\n",
      ")\n"
     ]
    },
    {
     "name": "stdout",
     "output_type": "stream",
     "text": [
      "\u001b[32m[08/12 08:33:07 d2.data.dataset_mapper]: \u001b[0m[DatasetMapper] Augmentations used in training: [RandomFlip(), RandomFlip(horizontal=False, vertical=True), RandomBrightness(intensity_min=0.8, intensity_max=1.2), RandomContrast(intensity_min=0.5, intensity_max=2), RandomRotation(angle=[0, 90, 180, 270], sample_style='choice'), ResizeShortestEdge(short_edge_length=(256, 768), max_size=1024), RandomCrop(crop_type='absolute_range', crop_size=(192, 256))]\n",
…
